nlp_class2/w2v_model.npz (npz, 160450 bytes, 2 tensors)

arr_1 f4 [10, 2001]
0	0x3ba6b7da	0.005087835
1	0x3cd1867c	0.025576822
2	0xbda90fb7	-0.082549505
3	0xbe0442ae	-0.12916061
4	0xbeac14a6	-0.33609504
5	0xbea88134	-0.32911074
6	0xbebe44e9	-0.3716195
7	0xbedb1acf	-0.4279389
8	0xbee74d63	-0.4517623
9	0xbecc3dc6	-0.3989088
10	0xbf236897	-0.63831466
11	0xbf25f0a8	-0.6482034
12	0xbf031eb0	-0.512187
13	0xbf199f0d	-0.6000832
14	0xbf2da93f	-0.67836374
15	0xbf7f3996	-0.99697244
16	0xbf2b0e59	-0.6681877
17	0xbf836a30	-1.0266781
18	0xbf481513	-0.78157157
19	0xbf814f75	-1.0102373
20	0xbf819316	-1.0123012
21	0xbf45f489	-0.77326256
22	0xbf96eeb9	-1.1791602
23	0xbf33a96d	-0.701804
24	0xbfaac4af	-1.3341273
25	0xbfad4962	-1.353802
26	0xbf95f89b	-1.1716493
27	0xbfa04acb	-1.2522825
28	0xbf959400	-1.1685791
29	0xbf731f1d	-0.9496935
30	0xbf9a4d98	-1.205493
31	0xbfa26e6c	-1.2689948
32	0xbf840c6c	-1.0316291
33	0xbf90f9c4	-1.1326222
34	0xbf8c8f87	-1.0981301
35	0xbfa11577	-1.2584676
36	0xbf9bf549	-1.218423
37	0xbf5a73f3	-0.85333174
38	0xbf90e210	-1.1318989
39	0xbfc467ae	-1.534414
40	0xbf7b4193	-0.98146933
41	0xbf867041	-1.0503007
42	0xbf9c45cb	-1.2208799
43	0xbf9d0563	-1.2267269
44	0xbf9ed1dc	-1.2407794
45	0xbfa888f2	-1.3166792
46	0xbf96e1cb	-1.1787657
47	0xbfa4a989	-1.2864238
48	0xbfb466e2	-1.4093897
49	0xbfca6fa6	-1.5815322
50	0xbf8a9893	-1.0827812
51	0xbf9979c9	-1.1990291
52	0xbfca5ea6	-1.5810134
53	0xbfe37f96	-1.7773311
54	0xbfbb47a5	-1.4631239
55	0xbfcb8658	-1.5900373
56	0xbfbe4556	-1.486491
57	0xbfbf7ff6	-1.4960926
58	0xbfbb1329	-1.4615222
59	0xbfa4ecb5	-1.2884737
60	0xbfd8f7a6	-1.6950576
61	0xbf97dded	-1.1864601
62	0xbfe6e2ba	-1.8037941
63	0xbfce1fab	-1.6103414
64	0xbfc8cf7b	-1.5688318
65	0xbff2e6d8	-1.8976698
66	0xbfd75666	-1.6823242
67	0xbfc7e4ce	-1.5616701
68	0xbf9be918	-1.218051
69	0xbf8c266f	-1.0949229
70	0xbfefed98	-1.8744383
71	0xbfd765bb	-1.6827921
72	0xbfcaca90	-1.5843067
73	0xc00ccc38	-2.1999645
74	0xbfc4faca	-1.5389035
75	0xbfd5095b	-1.664348
76	0xc0032f37	-2.0497568
77	0xbfdb0145	-1.7109762
78	0xbfb0a926	-1.380162
79	0xbfd092b3	-1.6294769
80	0xbfc93263	-1.5718502
81	0xbfda56f7	-1.705779
82	0xc004bccb	-2.074023
83	0xbf9b3909	-1.2126781
84	0xbff59e19	-1.9188873
85	0xbfb8d09f	-1.4438666
86	0xbfc26d8b	-1.518968
87	0xbfd3a062	-1.653332
88	0xbfcd0c33	-1.6019348
89	0xbfc20e23	-1.5160564
90	0xbfcc02d8	-1.5938368
91	0xbfb2e086	-1.3974769
92	0xbfa675fa	-1.3004754
93	0xbfaaf1be	-1.3355024
94	0xbfce0296	-1.6094539
95	0xbfd16f41	-1.6362077
96	0xbfac8828	-1.3479052
97	0xbfcc570b	-1.5964063
98	0xbfc218fc	-1.5163875
99	0xbfd78c1b	-1.6839632
100	0xbffb54d8	-1.9635267
101	0xbfb18d13	-1.3871177
102	0xbfd9a7e2	-1.7004359
103	0xbfe81b0a	-1.8133252
104	0xbfe040f3	-1.7519821
105	0xbfaf8262	-1.3711665
106	0xbfe06de6	-1.7533538
107	0xbfd32c38	-1.649787
108	0xbfed2056	-1.8525493
109	0xbfce2cbf	-1.6107405
110	0xbfe753b4	-1.8072419
111	0xbfc340da	-1.5254166
112	0xbfd77e8d	-1.6835495
113	0xbfd74e1e	-1.6820714
114	0xbfbb3cb6	-1.4627903
115	0xc012c991	-2.2935526
116	0xc000dda4	-2.0135279
117	0xbfe0119d	-1.7505375
118	0xbfc40117	-1.5312833
119	0xbfb4be50	-1.4120579
120	0xbfe0c7a7	-1.7560929
121	0xbfb81c50	-1.438364
122	0xbffbe4bb	-1.9679178
123	0xbfc365a8	-1.5265398
124	0xbf9cadf8	-1.2240591
125	0xc0018c66	-2.0241942
126	0xc01578b9	-2.3354933
127	0xbfab3f25	-1.3378645
128	0xbfcc317f	-1.5952605
129	0xbfbe82cd	-1.4883667
130	0xbfa45cbb	-1.2840799
131	0xbfe1e581	-1.7648164
132	0xbfda6239	-1.7061225
133	0xbfe21a05	-1.766419
134	0xbfce43cd	-1.6114441
135	0xbff447cc	-1.9084411
136	0xbfbef816	-1.491946
137	0xc003e2d2	-2.060719
138	0xbfca412e	-1.5801141
139	0xbfe9bb2c	-1.8260245
140	0xbfb2b102	-1.3960268
141	0xbfd826b6	-1.6886814
142	0xc0123df3	-2.285031
143	0xbfc64547	-1.5489892
144	0xbfd8c57a	-1.6935265
145	0xbfd9ffc7	-1.7031182
146	0xbfcf500d	-1.6196305
147	0xc01f43a9	-2.4885046
148	0xbffd6fff	-1.9799803
149	0xbfd09bd5	-1.6297556
150	0xbff94edf	-1.9477195
151	0xbfe32587	-1.7745827
152	0xbfcb01b5	-1.5859896
153	0xbff11c09	-1.8836681
154	0xc011a988	-2.2759724
155	0xbfac79c0	-1.3474655
156	0xc0058c1c	-2.0866766
157	0xbfe278e7	-1.7693146
158	0xbff5bb3f	-1.9197768
159	0xc002488b	-2.0356777
160	0xbfc7570d	-1.5573441
161	0xc0000e05	-2.0008557
162	0xbfe40a0d	-1.7815567
163	0xbff2f130	-1.8979855
164	0xc0160325	-2.343942
165	0xbfc7b1af	-1.56011
166	0xbfd1c6a5	-1.6388747
167	0xc008491d	-2.1294625
168	0xc00e15e7	-2.2200868
169	0xbfe4e079	-1.7881004
170	0xbfdf0bb1	-1.7425443
171	0xbfe8c09c	-1.818378
172	0xbfe9ffe0	-1.8281212
173	0xc02717ba	-2.6108232
174	0xc00b0aa0	-2.1725235
175	0xbfb24204	-1.3926396
176	0xbfc0b705	-1.5055853
177	0xbfe7220c	-1.8057265
178	0xbfc3a288	-1.5283976
179	0xc00a33e3	-2.159417
180	0xc008134d	-2.126178
181	0xbfd71725	-1.6803938
182	0xbfcf20cc	-1.6181884
183	0xbfd4691e	-1.6594579
184	0xc010aeb2	-2.2606626
185	0xbfb4849d	-1.410297
186	0xc00432ef	-2.0656087
187	0xbfc0c7a3	-1.5060924
188	0xc00fa7bb	-2.2446125
189	0xc00ec8d8	-2.2310085
190	0xbff884e6	-1.9415557
191	0xbfee1995	-1.8601557
192	0xbfd7547c	-1.6822658
193	0xbfe8b889	-1.8181316
194	0xc006e1b7	-2.1075265
195	0xbfd3b22a	-1.6538746
196	0xbff7a832	-1.9348204
197	0xc00cf0aa	-2.202189
198	0xbfd4de08	-1.6630259
199	0xbfe3e2d0	-1.7803593
200	0xc0177f90	-2.3671608
201	0xc004777c	-2.0697927
202	0xbfed92fd	-1.8560482
203	0xc00e6e6c	-2.2254896
204	0xc01efa08	-2.4840107
205	0xbffc125b	-1.9693102
206	0xc0132ef0	-2.2997398
207	0xc02174b2	-2.5227475
208	0xbfcf351e	-1.6188085
209	0xbffba5fe	-1.9660032
210	0xc00658b3	-2.0991638
211	0xc00728d4	-2.111867
212	0xbfc5f9d3	-1.5466865
213	0xc019e491	-2.4045756
214	0xbff2107a	-1.8911278
215	0xbff941dc	-1.9473224
216	0xbfe174c2	-1.7613757
217	0xc000779f	-2.007301
218	0xbff51f09	-1.9150096
219	0xc00feb70	-2.248745
220	0xbff6f7ff	-1.9294432
221	0xbfd94159	-1.6973068
222	0xc002a412	-2.041264
223	0xbfcbddc4	-1.5927052
224	0xbfe91619	-1.8209869
225	0xc0243d11	-2.5662272
226	0xc00b3f31	-2.175732
227	0xc00a03ae	-2.1564746
228	0xbff81e24	-1.9384198
229	0xc00209fb	-2.0318592
230	0xbff5fd27	-1.9217881
231	0xbfd320a3	-1.6494335
232	0xbfde338b	-1.735948
233	0xc000a609	-2.010134
234	0xc00c32f7	-2.1906106
235	0xbfefb19c	-1.8726077
236	0xbfc7e41a	-1.5616486
237	0xc0028368	-2.0392704
238	0xc00a5d2f	-2.1619375
239	0xbfe2f0b3	-1.7729706
240	0xbfcdee3d	-1.608833
241	0xbff0f7b7	-1.8825597
242	0xc025ba99	-2.589514
243	0xbffbd1ba	-1.9673378
244	0xc0163a0a	-2.3472924
245	0xbfea5712	-1.8307822
246	0xc007d53d	-2.12239
247	0xc00b1e14	-2.1737108
248	0xc01412f3	-2.3136566
249	0xc004c6ae	-2.0746264
250	0xbfe40aea	-1.7815831
251	0xbfd153f6	-1.6353748
252	0xbff2a57c	-1.8956752
253	0xc0059d0d	-2.0877106
254	0xbfcaa532	-1.5831664
255	0xbfe81747	-1.8132104

arr_0 f4 [2001, 10]
0	0x3cc331f1	0.023827525
1	0xbb4223b1	-0.0029623325
2	0xbb8e9153	-0.00435082
3	0x3d444473	0.04791684
4	0xb9644436	-0.00021769185
5	0xbc4aee33	-0.012385893
6	0xbca9face	-0.020749476
7	0xbc4a54db	-0.012349333
8	0x3b99fabd	0.00469908
9	0xbcb15658	-0.021647617
10	0x3d4c0df8	0.04981801
11	0x3c2aa1f5	0.01041459
12	0x3cd58491	0.02606419
13	0x3c721046	0.014774388
14	0x3c38619f	0.011253743
15	0xbb83095a	-0.0039989175
16	0xbc89994d	-0.016796732
17	0x3ccc2c43	0.02492345
18	0x3bb5efe9	0.005552281
19	0x3d0da72d	0.03458326
20	0x3fc0734c	1.5035186
21	0x3f0c7acb	0.5487487
22	0x3f47aef3	0.78001326
23	0xbf32051e	-0.6953906
24	0xbd73d8bc	-0.059532866
25	0xbfad02ec	-1.3516517
26	0x3e009f6b	0.12560813
27	0xbfa41fe9	-1.2822238
28	0x3ee7ce68	0.45274663
29	0x3fbf7d9b	1.4960207
30	0x40273cbd	2.6130822
31	0x3f8ed1c9	1.1157771
32	0x3f94c751	1.1623327
33	0xbfd1cbc6	-1.6390312
34	0xbeb7e596	-0.35917348
35	0xbfd00674	-1.6251969
36	0x3f042d79	0.51631886
37	0xbfbf0d76	-1.4925983
38	0x3e6afaf7	0.22947298
39	0x3fe6be5f	1.8026847
40	0x3fab2f2e	1.3373773
41	0x3f1c3fe0	0.61034966
42	0x3ed5e59d	0.41776744
43	0xbf677d07	-0.9042515
44	0xbe16291f	-0.14664124
45	0xbf0ca87a	-0.54944575
46	0x3eb5592b	0.35419592
47	0xbf22b7d0	-0.63561726
48	0x3d2a6b10	0.04160601
49	0x3f429f92	0.76024735
50	0x3f8d4060	1.1035271
51	0x3f164935	0.58705455
52	0xbdea56d3	-0.11442342
53	0xbf2dd8d4	-0.6790898
54	0xbd1719c3	-0.036889803
55	0xbe2740c5	-0.16333301
56	0x3ea8a522	0.32938486
57	0xbe2be6b5	-0.16787226
58	0x3e688973	0.22708683
59	0x3eaf75c9	0.3426955
60	0x3f06f4d4	0.5271733
61	0x3f5cdcab	0.8627421
62	0xc0472bfd	-3.1120598
63	0x3dfa807f	0.1223154
64	0x3f12158f	0.57064146
65	0x400c600b	2.193362
66	0x3efed81e	0.4977426
67	0x40007e62	2.0077138
68	0xbe12a5f4	-0.14321119
69	0xc00990ab	-2.1494548
70	0x3f6e8a76	0.93180025
71	0x3f3ab389	0.729302
72	0xbf97134f	-1.1802768
73	0xbeffd9c9	-0.49970844
74	0xba2a5849	-0.0006498141
75	0x3f299e23	0.6625692
76	0x3eb35e65	0.35032955
77	0x3f42934a	0.76005995
78	0xbda3e186	-0.080019996
79	0xbef32af1	-0.474937
80	0x3f9905ce	1.1954896
81	0x3f24b8ce	0.6434449
82	0xbfbea0b5	-1.4892794
83	0xbf3a7dc4	-0.72848153
84	0xbd0ed764	-0.03487338
85	0x3f81562d	1.0104424
86	0x3f08636f	0.53276724
87	0x3f3297f3	0.69763106
88	0xbe355031	-0.17706372
89	0xbf0da494	-0.5532925
90	0x3f5db834	0.86609197
91	0x3f22c586	0.63582647
92	0xc01cacf6	-2.4480567
93	0xbf0ae3b6	-0.5425371
94	0xbe7cb48c	-0.24678248
95	0x3fe55751	1.7917272
96	0x3f3f358e	0.7469109
97	0x3fda7d23	1.7069439
98	0xbe898a2c	-0.2686323
99	0xbf73c5e5	-0.9522384
100	0x3f155db3	0.583461
101	0x3f0a4173	0.5400612
102	0xbf5756e6	-0.8411697
103	0xbef089b9	-0.46980074
104	0xbcfaa339	-0.030595409
105	0x3f0f336c	0.5593784
106	0x3ebaa24a	0.36451942
107	0x3e665fe3	0.22497515
108	0x3dede25c	0.1161544
109	0xbea1b7fc	-0.3158568
110	0x3f36784c	0.7127731
111	0x3eab0322	0.33400828
112	0xbf2f9a1c	-0.6859453
113	0xbebd5cb4	-0.3698479
114	0xbd297668	-0.041372687
115	0x3eeee7b9	0.46661165
116	0x3ec72639	0.3889635
117	0x3ebac4f1	0.3647838
118	0xbc7e4425	-0.015519177
119	0xbe6bdc46	-0.23033246
120	0x3ee6503c	0.4498309
121	0x3f2030d4	0.62574506
122	0xc00386fb	-2.0551136
123	0xbe19e96a	-0.15030447
124	0x3e2f17b6	0.17098889
125	0x3fd8ce39	1.6937934
126	0x3eba060a	0.36332732
127	0x3fc872b6	1.5660007
128	0xbe711e23	-0.23546652
129	0xbfae79a2	-1.3630869
130	0x3f42df67	0.76122135
131	0x3ef241e1	0.47315887
132	0xbf9dc1f6	-1.2324817
133	0xbef84719	-0.48491743
134	0xbca1f7fd	-0.01977157
135	0x3f5455ec	0.82943606
136	0x3ec5daee	0.38643593
137	0x3f11f1a1	0.5700932
138	0x3db25c2e	0.08708988
139	0xbeef1d22	-0.46701914
140	0x3f11116d	0.56667215
141	0x3eba8020	0.36425877
142	0xbf129f79	-0.57274586
143	0xbecbe7e6	-0.39825362
144	0xbcfd4119	-0.03091483
145	0x3efa8258	0.4892757
146	0x3eb9f626	0.3632061
147	0x3eb457e5	0.35223308
148	0xbda7a618	-0.08185977
149	0xbe37e90d	-0.17959996
150	0x3eb95469	0.36197212
151	0x3e905e95	0.2819716
152	0xbe092591	-0.13393237
153	0xbe3fd4f2	-0.18733576
154	0x3cc3ddd8	0.023909494
155	0x3d883780	0.06651211
156	0x3e0c08a6	0.13675174
157	0xbcb8db2b	-0.022565445
158	0x3e080042	0.13281348
159	0x3d282782	0.041053303
160	0x3ee26c4c	0.4422325
161	0x3ec443b2	0.38332897
162	0xbf6ff9c9	-0.93740517
163	0xbe49b1d3	-0.19696741
164	0xba809dd2	-0.0009812659
165	0x3f479b91	0.7797175
166	0x3e961b0b	0.29317507
167	0x3f5d66fa	0.86485255
168	0xbe4742b0	-0.19459033
169	0xbf17ec2a	-0.5934473
170	0x3f37e3e5	0.71832114
171	0x3eab3486	0.3343851
172	0xbeb456d2	-0.3522249
173	0xbf040ece	-0.5158509
174	0xbe15909e	-0.14605948
175	0x3e1eea1d	0.15518995
176	0x3e96f7e2	0.29485995
177	0x3e057aa5	0.13035066
178	0x3c050658	0.008119188
179	0xbd5e47dc	-0.05426775
180	0x3f00b89c	0.5028169
181	0x3ea166a2	0.31523615
182	0xbf5ee4c0	-0.87067795
183	0xbe807c57	-0.25094864
184	0xbdabcbb2	-0.08388461
185	0x3f25e463	0.64801615
186	0x3e985049	0.29748753
187	0x3ee2dbc9	0.44308308
188	0x3b495715	0.003072207
189	0xbe8ddba2	-0.2770663
190	0x3e1ae6ad	0.15127058
191	0x3ec419f0	0.3830104
192	0xbf99a6f5	-1.2004076
193	0xbdeb98f1	-0.11503781
194	0x3de68928	0.11256629
195	0x3f85b51c	1.0445895
196	0x3ec04734	0.37554324
197	0x3f2b76eb	0.6697833
198	0xbd51d822	-0.05123151
199	0xbf3cd088	-0.73755693
200	0x3e6be013	0.23034696
201	0x3ef095fb	0.46989426
202	0xbfeb0df3	-1.8363632
203	0xbd58d59e	-0.052938096
204	0x3e1a9a95	0.15098031
205	0x3fc0e73e	1.507057
206	0x3ece75d2	0.40324265
207	0x3fa71feb	1.3056616
208	0xbe6f28a2	-0.23355344
209	0xbfa4ef60	-1.2885551
210	0x3f0e03d3	0.55474585
211	0x3ef8e5a3	0.486127
212	0xbfdc0192	-1.7187979
213	0xbe8398b6	-0.25702447
214	0x3d8c4fcf	0.0685116
215	0x3fa7e04c	1.3115325
216	0x3e81265d	0.2522458
217	0x3fa4e61e	1.2882726
218	0xbe6f96a8	-0.23397315
219	0xbf820f04	-1.0160832
220	0xbe2d3e9a	-0.16918412
221	0x3f1bd351	0.6086932
222	0xc04ebd8d	-3.2303193
223	0x3f0239a4	0.508692
224	0x3f00d7e8	0.50329447
225	0x402c65c2	2.6937108
226	0x3ec55150	0.385386
227	0x4031bbc4	2.7770853
228	0xbeb0da62	-0.34541613
229	0xc0267407	-2.6008317
230	0x3f032738	0.5123172
231	0x3eba79f8	0.3642118
232	0xbf326e60	-0.6969967
233	0xbedcf6ae	-0.43156952
234	0xbe0c86f5	-0.13723357
235	0x3f14db73	0.5814735
236	0x3e95cd1a	0.29258043
237	0x3ea64316	0.32473058
238	0xbdcd316b	-0.10019191
239	0xbe4a3e41	-0.1975031
240	0x3e7d683b	0.24746792
241	0x3e63562b	0.22200839
242	0xbd70ee2c	-0.05882089
243	0xbe81ca1c	-0.2534951
244	0xbcaea5e8	-0.021319345
245	0x3db6389f	0.08897518
246	0x3d9597cc	0.073043436
247	0xbca899b3	-0.020581102
248	0x3a4fc972	0.0007926441
249	0x3d17aa48	0.037027627
250	0xbe77f91c	-0.24216121
251	0x3f113c0f	0.5673227
252	0xbfdcd8db	-1.7253679
253	0x3eb4549e	0.35220808
254	0x3eb518a2	0.35370356
255	0x3fb51017	1.4145535
